…
I0715 14:49:59.771102  1159 net.cpp:294] The NetState phase (0) differed from the phase (1) specified by a rule in layer cifar100
I0715 14:49:59.771118  1159 net.cpp:294] The NetState phase (0) differed from the phase (1) specified by a rule in layer accuracy
I0715 14:49:59.771226  1159 net.cpp:51] Initializing net from parameters: 
name: "cifar100"
state {
  phase: TRAIN
  level: 0
  stage: ""
}
layer {
  name: "cifar100"
  type: "Data"
  top: "data"
  top: "label"
  include {
    phase: TRAIN
  }
  transform_param {
    mean_file: "mean.binaryproto"
  }
  data_param {
    source: "cifar100_train_lmdb"
    batch_size: 128
    backend: LMDB
  }
}
layer {
  name: "conv1"
  type: "Convolution"
  bottom: "data"
  top: "conv1"
  param {
    lr_mult: 1
    decay_mult: 1
  }
  param {
    lr_mult: 2
    decay_mult: 0
  }
  convolution_param {
    num_output: 32
    pad: 1
    kernel_size: 3
    stride: 1
    weight_filler {
      type: "msra"
    }
    bias_filler {
      type: "constant"
      value: 0
    }
  }
}
layer {
  name: "bn1"
  type: "BatchNorm"
  bottom: "conv1"
  top: "conv1"
  param {
    lr_mult: 0
    decay_mult: 0
  }
  param {
    lr_mult: 0
    decay_mult: 0
  }
  param {
    lr_mult: 0
    decay_mult: 0
  }
}
layer {
  name: "Scale1"
  type: "Scale"
  bottom: "conv1"
  top: "conv1"
  scale_param {
    bias_term: true
  }
}
layer {
  name: "ReLU1"
  type: "ReLU"
  bottom: "conv1"
  top: "conv1"
}
layer {
  name: "conv2"
  type: "Convolution"
  bottom: "conv1"
  top: "conv2"
  param {
    lr_mult: 1
    decay_mult: 1
  }
  param {
    lr_mult: 2
    decay_mult: 0
  }
  convolution_param {
    num_output: 64
    pad: 1
    kernel_size: 3
    stride: 2
    weight_filler {
      type: "msra"
    }
    bias_filler {
      type: "constant"
      value: 0
    }
  }
}
layer {
  name: "bn2"
  type: "BatchNorm"
  bottom: "conv2"
  top: "conv2"
  param {
    lr_mult: 0
    decay_mult: 0
  }
  param {
    lr_mult: 0
    decay_mult: 0
  }
  param {
    lr_mult: 0
    decay_mult: 0
  }
}
layer {
  name: "Scale4"
  type: "Scale"
  bottom: "conv2"
  top: "conv2"
  scale_param {
    bias_term: true
  }
}
layer {
  name: "ReLU4"
  type: "ReLU"
  bottom: "conv2"
  top: "conv2"
}
layer {
  name: "conv3"
  type: "Convolution"
  bottom: "conv2"
  top: "conv3"
  param {
    lr_mult: 1
    decay_mult: 1
  }
  param {
    lr_mult: 2
    decay_mult: 0
  }
  convolution_param {
    num_output: 128
    pad: 1
    kernel_size: 3
    stride: 2
    weight_filler {
      type: "msra"
    }
    bias_filler {
      type: "constant"
      value: 0
    }
  }
}
layer {
  name: "bn3"
  type: "BatchNorm"
  bottom: "conv3"
  top: "conv3"
  param {
    lr_mult: 0
    decay_mult: 0
  }
  param {
    lr_mult: 0
    decay_mult: 0
  }
  param {
    lr_mult: 0
    decay_mult: 0
  }
}
layer {
  name: "Scale6"
  type: "Scale"
  bottom: "conv3"
  top: "conv3"
  scale_param {
    bias_term: true
  }
}
layer {
  name: "ReLU6"
  type: "ReLU"
  bottom: "conv3"
  top: "conv3"
}
layer {
  name: "pool1"
  type: "Pooling"
  bottom: "conv3"
  top: "pool1"
  pooling_param {
    pool: AVE
    global_pooling: true
  }
}
layer {
  name: "ip1"
  type: "InnerProduct"
  bottom: "pool1"
  top: "ip1"
  param {
    lr_mult: 1
    decay_mult: 1
  }
  param {
    lr_mult: 2
    decay_mult: 1
  }
  inner_product_param {
    num_output: 100
    weight_filler {
      type: "msra"
    }
    bias_filler {
      type: "constant"
      value: 0
    }
  }
}
layer {
  name: "loss"
  type: "SoftmaxWithLoss"
  bottom: "ip1"
  bottom: "label"
  top: "loss"
}
I0715 14:49:59.771313  1159 layer_factory.hpp:77] Creating layer cifar100
I0715 14:49:59.771419  1159 db_lmdb.cpp:35] Opened lmdb cifar100_train_lmdb
I0715 14:49:59.771461  1159 net.cpp:84] Creating Layer cifar100
I0715 14:49:59.771474  1159 net.cpp:380] cifar100 -> data
I0715 14:49:59.771497  1159 net.cpp:380] cifar100 -> label
I0715 14:49:59.771525  1159 data_transformer.cpp:25] Loading mean file from: mean.binaryproto
I0715 14:49:59.773383  1159 data_layer.cpp:45] output data size: 128,3,32,32
I0715 14:49:59.779346  1159 net.cpp:122] Setting up cifar100
I0715 14:49:59.779381  1159 net.cpp:129] Top shape: 128 3 32 32 (393216)
I0715 14:49:59.779392  1159 net.cpp:129] Top shape: 128 (128)
I0715 14:49:59.779402  1159 net.cpp:137] Memory required for data: 1573376
I0715 14:49:59.779423  1159 layer_factory.hpp:77] Creating layer conv1
I0715 14:49:59.779446  1159 net.cpp:84] Creating Layer conv1
I0715 14:49:59.779456  1159 net.cpp:406] conv1 <- data
I0715 14:49:59.779474  1159 net.cpp:380] conv1 -> conv1
I0715 14:49:59.987512  1159 net.cpp:122] Setting up conv1
I0715 14:49:59.987565  1159 net.cpp:129] Top shape: 128 32 32 32 (4194304)
I0715 14:49:59.987574  1159 net.cpp:137] Memory required for data: 18350592
I0715 14:49:59.987609  1159 layer_factory.hpp:77] Creating layer bn1
I0715 14:49:59.987627  1159 net.cpp:84] Creating Layer bn1
I0715 14:49:59.987637  1159 net.cpp:406] bn1 <- conv1
I0715 14:49:59.987645  1159 net.cpp:367] bn1 -> conv1 (in-place)
I0715 14:49:59.987833  1159 net.cpp:122] Setting up bn1
I0715 14:49:59.987849  1159 net.cpp:129] Top shape: 128 32 32 32 (4194304)
I0715 14:49:59.987859  1159 net.cpp:137] Memory required for data: 35127808
I0715 14:49:59.987874  1159 layer_factory.hpp:77] Creating layer Scale1
I0715 14:49:59.987884  1159 net.cpp:84] Creating Layer Scale1
I0715 14:49:59.987892  1159 net.cpp:406] Scale1 <- conv1
I0715 14:49:59.987901  1159 net.cpp:367] Scale1 -> conv1 (in-place)
I0715 14:49:59.987954  1159 layer_factory.hpp:77] Creating layer Scale1
I0715 14:49:59.988059  1159 net.cpp:122] Setting up Scale1
I0715 14:49:59.988072  1159 net.cpp:129] Top shape: 128 32 32 32 (4194304)
I0715 14:49:59.988081  1159 net.cpp:137] Memory required for data: 51905024
I0715 14:49:59.988093  1159 layer_factory.hpp:77] Creating layer ReLU1
I0715 14:49:59.988102  1159 net.cpp:84] Creating Layer ReLU1
I0715 14:49:59.988111  1159 net.cpp:406] ReLU1 <- conv1
I0715 14:49:59.988121  1159 net.cpp:367] ReLU1 -> conv1 (in-place)
I0715 14:49:59.988301  1159 net.cpp:122] Setting up ReLU1
I0715 14:49:59.988318  1159 net.cpp:129] Top shape: 128 32 32 32 (4194304)
I0715 14:49:59.988327  1159 net.cpp:137] Memory required for data: 68682240
I0715 14:49:59.988337  1159 layer_factory.hpp:77] Creating layer conv2
I0715 14:49:59.988350  1159 net.cpp:84] Creating Layer conv2
I0715 14:49:59.988360  1159 net.cpp:406] conv2 <- conv1
I0715 14:49:59.988373  1159 net.cpp:380] conv2 -> conv2
I0715 14:49:59.990862  1159 net.cpp:122] Setting up conv2
I0715 14:49:59.990890  1159 net.cpp:129] Top shape: 128 64 16 16 (2097152)
I0715 14:49:59.990900  1159 net.cpp:137] Memory required for data: 77070848
I0715 14:49:59.990914  1159 layer_factory.hpp:77] Creating layer bn2
I0715 14:49:59.990931  1159 net.cpp:84] Creating Layer bn2
I0715 14:49:59.990939  1159 net.cpp:406] bn2 <- conv2
I0715 14:49:59.990952  1159 net.cpp:367] bn2 -> conv2 (in-place)
I0715 14:49:59.991125  1159 net.cpp:122] Setting up bn2
I0715 14:49:59.991138  1159 net.cpp:129] Top shape: 128 64 16 16 (2097152)
I0715 14:49:59.991147  1159 net.cpp:137] Memory required for data: 85459456
I0715 14:49:59.991164  1159 layer_factory.hpp:77] Creating layer Scale4
I0715 14:49:59.991175  1159 net.cpp:84] Creating Layer Scale4
I0715 14:49:59.991184  1159 net.cpp:406] Scale4 <- conv2
I0715 14:49:59.991211  1159 net.cpp:367] Scale4 -> conv2 (in-place)
I0715 14:49:59.991257  1159 layer_factory.hpp:77] Creating layer Scale4
I0715 14:49:59.991364  1159 net.cpp:122] Setting up Scale4
I0715 14:49:59.991376  1159 net.cpp:129] Top shape: 128 64 16 16 (2097152)
I0715 14:49:59.991385  1159 net.cpp:137] Memory required for data: 93848064
I0715 14:49:59.991397  1159 layer_factory.hpp:77] Creating layer ReLU4
I0715 14:49:59.991413  1159 net.cpp:84] Creating Layer ReLU4
I0715 14:49:59.991422  1159 net.cpp:406] ReLU4 <- conv2
I0715 14:49:59.991432  1159 net.cpp:367] ReLU4 -> conv2 (in-place)
I0715 14:49:59.991601  1159 net.cpp:122] Setting up ReLU4
I0715 14:49:59.991613  1159 net.cpp:129] Top shape: 128 64 16 16 (2097152)
I0715 14:49:59.991622  1159 net.cpp:137] Memory required for data: 102236672
I0715 14:49:59.991632  1159 layer_factory.hpp:77] Creating layer conv3
I0715 14:49:59.991649  1159 net.cpp:84] Creating Layer conv3
I0715 14:49:59.991659  1159 net.cpp:406] conv3 <- conv2
I0715 14:49:59.991670  1159 net.cpp:380] conv3 -> conv3
I0715 14:49:59.993358  1159 net.cpp:122] Setting up conv3
I0715 14:49:59.993381  1159 net.cpp:129] Top shape: 128 128 8 8 (1048576)
I0715 14:49:59.993391  1159 net.cpp:137] Memory required for data: 106430976
I0715 14:49:59.993404  1159 layer_factory.hpp:77] Creating layer bn3
I0715 14:49:59.993413  1159 net.cpp:84] Creating Layer bn3
I0715 14:49:59.993423  1159 net.cpp:406] bn3 <- conv3
I0715 14:49:59.993432  1159 net.cpp:367] bn3 -> conv3 (in-place)
I0715 14:49:59.993602  1159 net.cpp:122] Setting up bn3
I0715 14:49:59.993615  1159 net.cpp:129] Top shape: 128 128 8 8 (1048576)
I0715 14:49:59.993625  1159 net.cpp:137] Memory required for data: 110625280
I0715 14:49:59.993643  1159 layer_factory.hpp:77] Creating layer Scale6
I0715 14:49:59.993652  1159 net.cpp:84] Creating Layer Scale6
I0715 14:49:59.993661  1159 net.cpp:406] Scale6 <- conv3
I0715 14:49:59.993670  1159 net.cpp:367] Scale6 -> conv3 (in-place)
I0715 14:49:59.993716  1159 layer_factory.hpp:77] Creating layer Scale6
I0715 14:49:59.993808  1159 net.cpp:122] Setting up Scale6
I0715 14:49:59.993820  1159 net.cpp:129] Top shape: 128 128 8 8 (1048576)
I0715 14:49:59.993829  1159 net.cpp:137] Memory required for data: 114819584
I0715 14:49:59.993840  1159 layer_factory.hpp:77] Creating layer ReLU6
I0715 14:49:59.993851  1159 net.cpp:84] Creating Layer ReLU6
I0715 14:49:59.993860  1159 net.cpp:406] ReLU6 <- conv3
I0715 14:49:59.993870  1159 net.cpp:367] ReLU6 -> conv3 (in-place)
I0715 14:49:59.994367  1159 net.cpp:122] Setting up ReLU6
I0715 14:49:59.994392  1159 net.cpp:129] Top shape: 128 128 8 8 (1048576)
I0715 14:49:59.994401  1159 net.cpp:137] Memory required for data: 119013888
I0715 14:49:59.994410  1159 layer_factory.hpp:77] Creating layer pool1
I0715 14:49:59.994419  1159 net.cpp:84] Creating Layer pool1
I0715 14:49:59.994429  1159 net.cpp:406] pool1 <- conv3
I0715 14:49:59.994443  1159 net.cpp:380] pool1 -> pool1
I0715 14:49:59.994639  1159 net.cpp:122] Setting up pool1
I0715 14:49:59.994663  1159 net.cpp:129] Top shape: 128 128 1 1 (16384)
I0715 14:49:59.994673  1159 net.cpp:137] Memory required for data: 119079424
I0715 14:49:59.994683  1159 layer_factory.hpp:77] Creating layer ip1
I0715 14:49:59.994699  1159 net.cpp:84] Creating Layer ip1
I0715 14:49:59.994709  1159 net.cpp:406] ip1 <- pool1
I0715 14:49:59.994717  1159 net.cpp:380] ip1 -> ip1
I0715 14:49:59.995775  1159 net.cpp:122] Setting up ip1
I0715 14:49:59.995801  1159 net.cpp:129] Top shape: 128 100 (12800)
I0715 14:49:59.995811  1159 net.cpp:137] Memory required for data: 119130624
I0715 14:49:59.995824  1159 layer_factory.hpp:77] Creating layer loss
I0715 14:49:59.995836  1159 net.cpp:84] Creating Layer loss
I0715 14:49:59.995846  1159 net.cpp:406] loss <- ip1
I0715 14:49:59.995856  1159 net.cpp:406] loss <- label
I0715 14:49:59.995864  1159 net.cpp:380] loss -> loss
I0715 14:49:59.995875  1159 layer_factory.hpp:77] Creating layer loss
…
I0715 14:49:59.996626  1159 solver.cpp:172] Creating test net (#0) specified by net file: cifar100/normal/cifar100_train_test.prototxt
I0715 14:49:59.996652  1159 net.cpp:294] The NetState phase (1) differed from the phase (0) specified by a rule in layer cifar100
I0715 14:49:59.996764  1159 net.cpp:51] Initializing net from parameters: 
name: "cifar100"
state {
  phase: TEST
}
layer {
  name: "cifar100"
  type: "Data"
  top: "data"
  top: "label"
  include {
    phase: TEST
  }
  transform_param {
    mean_file: "mean.binaryproto"
  }
  data_param {
    source: "cifar100_test_lmdb"
    batch_size: 100
    backend: LMDB
  }
}
layer {
  name: "conv1"
  type: "Convolution"
  bottom: "data"
  top: "conv1"
  param {
    lr_mult: 1
    decay_mult: 1
  }
  param {
    lr_mult: 2
    decay_mult: 0
  }
  convolution_param {
    num_output: 32
    pad: 1
    kernel_size: 3
    stride: 1
    weight_filler {
      type: "msra"
    }
    bias_filler {
      type: "constant"
      value: 0
    }
  }
}
layer {
  name: "bn1"
  type: "BatchNorm"
  bottom: "conv1"
  top: "conv1"
  param {
    lr_mult: 0
    decay_mult: 0
  }
  param {
    lr_mult: 0
    decay_mult: 0
  }
  param {
    lr_mult: 0
    decay_mult: 0
  }
}
layer {
  name: "Scale1"
  type: "Scale"
  bottom: "conv1"
  top: "conv1"
  scale_param {
    bias_term: true
  }
}
layer {
  name: "ReLU1"
  type: "ReLU"
  bottom: "conv1"
  top: "conv1"
}
layer {
  name: "conv2"
  type: "Convolution"
  bottom: "conv1"
  top: "conv2"
  param {
    lr_mult: 1
    decay_mult: 1
  }
  param {
    lr_mult: 2
    decay_mult: 0
  }
  convolution_param {
    num_output: 64
    pad: 1
    kernel_size: 3
    stride: 2
    weight_filler {
      type: "msra"
    }
    bias_filler {
      type: "constant"
      value: 0
    }
  }
}
layer {
  name: "bn2"
  type: "BatchNorm"
  bottom: "conv2"
  top: "conv2"
  param {
    lr_mult: 0
    decay_mult: 0
  }
  param {
    lr_mult: 0
    decay_mult: 0
  }
  param {
    lr_mult: 0
    decay_mult: 0
  }
}
layer {
  name: "Scale4"
  type: "Scale"
  bottom: "conv2"
  top: "conv2"
  scale_param {
    bias_term: true
  }
}
layer {
  name: "ReLU4"
  type: "ReLU"
  bottom: "conv2"
  top: "conv2"
}
layer {
  name: "conv3"
  type: "Convolution"
  bottom: "conv2"
  top: "conv3"
  param {
    lr_mult: 1
    decay_mult: 1
  }
  param {
    lr_mult: 2
    decay_mult: 0
  }
  convolution_param {
    num_output: 128
    pad: 1
    kernel_size: 3
    stride: 2
    weight_filler {
      type: "msra"
    }
    bias_filler {
      type: "constant"
      value: 0
    }
  }
}
layer {
  name: "bn3"
  type: "BatchNorm"
  bottom: "conv3"
  top: "conv3"
  param {
    lr_mult: 0
    decay_mult: 0
  }
  param {
    lr_mult: 0
    decay_mult: 0
  }
  param {
    lr_mult: 0
    decay_mult: 0
  }
}
layer {
  name: "Scale6"
  type: "Scale"
  bottom: "conv3"
  top: "conv3"
  scale_param {
    bias_term: true
  }
}
layer {
  name: "ReLU6"
  type: "ReLU"
  bottom: "conv3"
  top: "conv3"
}
layer {
  name: "pool1"
  type: "Pooling"
  bottom: "conv3"
  top: "pool1"
  pooling_param {
    pool: AVE
    global_pooling: true
  }
}
layer {
  name: "ip1"
  type: "InnerProduct"
  bottom: "pool1"
  top: "ip1"
  param {
    lr_mult: 1
    decay_mult: 1
  }
  param {
    lr_mult: 2
    decay_mult: 1
  }
  inner_product_param {
    num_output: 100
    weight_filler {
      type: "msra"
    }
    bias_filler {
      type: "constant"
      value: 0
    }
  }
}
layer {
  name: "loss"
  type: "SoftmaxWithLoss"
  bottom: "ip1"
  bottom: "label"
  top: "loss"
}
layer {
  name: "accuracy"
  type: "Accuracy"
  bottom: "ip1"
  bottom: "label"
  top: "accuracy"
  include {
    phase: TEST
  }
}
I0715 14:49:59.996857  1159 layer_factory.hpp:77] Creating layer cifar100
I0715 14:49:59.996915  1159 db_lmdb.cpp:35] Opened lmdb cifar100_test_lmdb
I0715 14:49:59.996974  1159 net.cpp:84] Creating Layer cifar100
I0715 14:49:59.996986  1159 net.cpp:380] cifar100 -> data
I0715 14:49:59.997000  1159 net.cpp:380] cifar100 -> label
I0715 14:49:59.997014  1159 data_transformer.cpp:25] Loading mean file from: mean.binaryproto
I0715 14:49:59.997155  1159 data_layer.cpp:45] output data size: 100,3,32,32
I0715 14:50:00.003147  1159 net.cpp:122] Setting up cifar100
I0715 14:50:00.003175  1159 net.cpp:129] Top shape: 100 3 32 32 (307200)
I0715 14:50:00.003186  1159 net.cpp:129] Top shape: 100 (100)
I0715 14:50:00.003196  1159 net.cpp:137] Memory required for data: 1229200
I0715 14:50:00.003207  1159 layer_factory.hpp:77] Creating layer label_cifar100_1_split
I0715 14:50:00.003221  1159 net.cpp:84] Creating Layer label_cifar100_1_split
I0715 14:50:00.003232  1159 net.cpp:406] label_cifar100_1_split <- label
I0715 14:50:00.003242  1159 net.cpp:380] label_cifar100_1_split -> label_cifar100_1_split_0
I0715 14:50:00.003260  1159 net.cpp:380] label_cifar100_1_split -> label_cifar100_1_split_1
I0715 14:50:00.003383  1159 net.cpp:122] Setting up label_cifar100_1_split
I0715 14:50:00.003397  1159 net.cpp:129] Top shape: 100 (100)
I0715 14:50:00.003407  1159 net.cpp:129] Top shape: 100 (100)
I0715 14:50:00.003415  1159 net.cpp:137] Memory required for data: 1230000
I0715 14:50:00.003424  1159 layer_factory.hpp:77] Creating layer conv1
I0715 14:50:00.003443  1159 net.cpp:84] Creating Layer conv1
I0715 14:50:00.003453  1159 net.cpp:406] conv1 <- data
I0715 14:50:00.003463  1159 net.cpp:380] conv1 -> conv1
I0715 14:50:00.004895  1159 net.cpp:122] Setting up conv1
I0715 14:50:00.004920  1159 net.cpp:129] Top shape: 100 32 32 32 (3276800)
I0715 14:50:00.004981  1159 net.cpp:137] Memory required for data: 14337200
I0715 14:50:00.004993  1159 layer_factory.hpp:77] Creating layer bn1
I0715 14:50:00.005022  1159 net.cpp:84] Creating Layer bn1
I0715 14:50:00.005044  1159 net.cpp:406] bn1 <- conv1
I0715 14:50:00.005067  1159 net.cpp:367] bn1 -> conv1 (in-place)
I0715 14:50:00.005259  1159 net.cpp:122] Setting up bn1
I0715 14:50:00.005269  1159 net.cpp:129] Top shape: 100 32 32 32 (3276800)
I0715 14:50:00.005291  1159 net.cpp:137] Memory required for data: 27444400
I0715 14:50:00.005304  1159 layer_factory.hpp:77] Creating layer Scale1
I0715 14:50:00.005331  1159 net.cpp:84] Creating Layer Scale1
I0715 14:50:00.005340  1159 net.cpp:406] Scale1 <- conv1
I0715 14:50:00.005363  1159 net.cpp:367] Scale1 -> conv1 (in-place)
I0715 14:50:00.005419  1159 layer_factory.hpp:77] Creating layer Scale1
I0715 14:50:00.005520  1159 net.cpp:122] Setting up Scale1
I0715 14:50:00.005563  1159 net.cpp:129] Top shape: 100 32 32 32 (3276800)
I0715 14:50:00.005571  1159 net.cpp:137] Memory required for data: 40551600
I0715 14:50:00.005580  1159 layer_factory.hpp:77] Creating layer ReLU1
I0715 14:50:00.005590  1159 net.cpp:84] Creating Layer ReLU1
I0715 14:50:00.005599  1159 net.cpp:406] ReLU1 <- conv1
I0715 14:50:00.005622  1159 net.cpp:367] ReLU1 -> conv1 (in-place)
I0715 14:50:00.005801  1159 net.cpp:122] Setting up ReLU1
I0715 14:50:00.005811  1159 net.cpp:129] Top shape: 100 32 32 32 (3276800)
I0715 14:50:00.005836  1159 net.cpp:137] Memory required for data: 53658800
I0715 14:50:00.005844  1159 layer_factory.hpp:77] Creating layer conv2
I0715 14:50:00.005872  1159 net.cpp:84] Creating Layer conv2
I0715 14:50:00.005895  1159 net.cpp:406] conv2 <- conv1
I0715 14:50:00.005936  1159 net.cpp:380] conv2 -> conv2
I0715 14:50:00.007213  1159 net.cpp:122] Setting up conv2
I0715 14:50:00.007231  1159 net.cpp:129] Top shape: 100 64 16 16 (1638400)
I0715 14:50:00.007241  1159 net.cpp:137] Memory required for data: 60212400
I0715 14:50:00.007270  1159 layer_factory.hpp:77] Creating layer bn2
I0715 14:50:00.007284  1159 net.cpp:84] Creating Layer bn2
I0715 14:50:00.007293  1159 net.cpp:406] bn2 <- conv2
I0715 14:50:00.007302  1159 net.cpp:367] bn2 -> conv2 (in-place)
I0715 14:50:00.007484  1159 net.cpp:122] Setting up bn2
I0715 14:50:00.007494  1159 net.cpp:129] Top shape: 100 64 16 16 (1638400)
I0715 14:50:00.007519  1159 net.cpp:137] Memory required for data: 66766000
I0715 14:50:00.007532  1159 layer_factory.hpp:77] Creating layer Scale4
I0715 14:50:00.007546  1159 net.cpp:84] Creating Layer Scale4
I0715 14:50:00.007555  1159 net.cpp:406] Scale4 <- conv2
I0715 14:50:00.007568  1159 net.cpp:367] Scale4 -> conv2 (in-place)
I0715 14:50:00.007772  1159 layer_factory.hpp:77] Creating layer Scale4
I0715 14:50:00.007880  1159 net.cpp:122] Setting up Scale4
I0715 14:50:00.007889  1159 net.cpp:129] Top shape: 100 64 16 16 (1638400)
I0715 14:50:00.007912  1159 net.cpp:137] Memory required for data: 73319600
I0715 14:50:00.007936  1159 layer_factory.hpp:77] Creating layer ReLU4
I0715 14:50:00.007944  1159 net.cpp:84] Creating Layer ReLU4
I0715 14:50:00.007967  1159 net.cpp:406] ReLU4 <- conv2
I0715 14:50:00.007990  1159 net.cpp:367] ReLU4 -> conv2 (in-place)
I0715 14:50:00.008587  1159 net.cpp:122] Setting up ReLU4
I0715 14:50:00.008607  1159 net.cpp:129] Top shape: 100 64 16 16 (1638400)
I0715 14:50:00.008617  1159 net.cpp:137] Memory required for data: 79873200
I0715 14:50:00.008641  1159 layer_factory.hpp:77] Creating layer conv3
I0715 14:50:00.008653  1159 net.cpp:84] Creating Layer conv3
I0715 14:50:00.008677  1159 net.cpp:406] conv3 <- conv2
I0715 14:50:00.008703  1159 net.cpp:380] conv3 -> conv3
I0715 14:50:00.010143  1159 net.cpp:122] Setting up conv3
I0715 14:50:00.010161  1159 net.cpp:129] Top shape: 100 128 8 8 (819200)
I0715 14:50:00.010170  1159 net.cpp:137] Memory required for data: 83150000
I0715 14:50:00.010200  1159 layer_factory.hpp:77] Creating layer bn3
I0715 14:50:00.010212  1159 net.cpp:84] Creating Layer bn3
I0715 14:50:00.010221  1159 net.cpp:406] bn3 <- conv3
I0715 14:50:00.010232  1159 net.cpp:367] bn3 -> conv3 (in-place)
I0715 14:50:00.010422  1159 net.cpp:122] Setting up bn3
I0715 14:50:00.010437  1159 net.cpp:129] Top shape: 100 128 8 8 (819200)
I0715 14:50:00.010445  1159 net.cpp:137] Memory required for data: 86426800
I0715 14:50:00.010463  1159 layer_factory.hpp:77] Creating layer Scale6
I0715 14:50:00.010473  1159 net.cpp:84] Creating Layer Scale6
I0715 14:50:00.010483  1159 net.cpp:406] Scale6 <- conv3
I0715 14:50:00.010493  1159 net.cpp:367] Scale6 -> conv3 (in-place)
I0715 14:50:00.010753  1159 layer_factory.hpp:77] Creating layer Scale6
I0715 14:50:00.010860  1159 net.cpp:122] Setting up Scale6
I0715 14:50:00.010871  1159 net.cpp:129] Top shape: 100 128 8 8 (819200)
I0715 14:50:00.010895  1159 net.cpp:137] Memory required for data: 89703600
I0715 14:50:00.010903  1159 layer_factory.hpp:77] Creating layer ReLU6
I0715 14:50:00.010931  1159 net.cpp:84] Creating Layer ReLU6
I0715 14:50:00.010963  1159 net.cpp:406] ReLU6 <- conv3
I0715 14:50:00.010987  1159 net.cpp:367] ReLU6 -> conv3 (in-place)
I0715 14:50:00.011579  1159 net.cpp:122] Setting up ReLU6
I0715 14:50:00.011596  1159 net.cpp:129] Top shape: 100 128 8 8 (819200)
I0715 14:50:00.011605  1159 net.cpp:137] Memory required for data: 92980400
I0715 14:50:00.011628  1159 layer_factory.hpp:77] Creating layer pool1
I0715 14:50:00.011656  1159 net.cpp:84] Creating Layer pool1
I0715 14:50:00.011667  1159 net.cpp:406] pool1 <- conv3
I0715 14:50:00.011680  1159 net.cpp:380] pool1 -> pool1
I0715 14:50:00.011862  1159 net.cpp:122] Setting up pool1
I0715 14:50:00.011873  1159 net.cpp:129] Top shape: 100 128 1 1 (12800)
I0715 14:50:00.011898  1159 net.cpp:137] Memory required for data: 93031600
I0715 14:50:00.011920  1159 layer_factory.hpp:77] Creating layer ip1
I0715 14:50:00.011948  1159 net.cpp:84] Creating Layer ip1
I0715 14:50:00.011971  1159 net.cpp:406] ip1 <- pool1
I0715 14:50:00.011996  1159 net.cpp:380] ip1 -> ip1
I0715 14:50:00.012241  1159 net.cpp:122] Setting up ip1
I0715 14:50:00.012250  1159 net.cpp:129] Top shape: 100 100 (10000)
I0715 14:50:00.012259  1159 net.cpp:137] Memory required for data: 93071600
I0715 14:50:00.012269  1159 layer_factory.hpp:77] Creating layer ip1_ip1_0_split
I0715 14:50:00.012297  1159 net.cpp:84] Creating Layer ip1_ip1_0_split
I0715 14:50:00.012306  1159 net.cpp:406] ip1_ip1_0_split <- ip1
I0715 14:50:00.012315  1159 net.cpp:380] ip1_ip1_0_split -> ip1_ip1_0_split_0
I0715 14:50:00.012329  1159 net.cpp:380] ip1_ip1_0_split -> ip1_ip1_0_split_1
I0715 14:50:00.012373  1159 net.cpp:122] Setting up ip1_ip1_0_split
I0715 14:50:00.012382  1159 net.cpp:129] Top shape: 100 100 (10000)
I0715 14:50:00.012405  1159 net.cpp:129] Top shape: 100 100 (10000)
I0715 14:50:00.012428  1159 net.cpp:137] Memory required for data: 93151600
I0715 14:50:00.012451  1159 layer_factory.hpp:77] Creating layer loss
I0715 14:50:00.012460  1159 net.cpp:84] Creating Layer loss
I0715 14:50:00.012483  1159 net.cpp:406] loss <- ip1_ip1_0_split_0
I0715 14:50:00.012506  1159 net.cpp:406] loss <- label_cifar100_1_split_0
I0715 14:50:00.012529  1159 net.cpp:380] loss -> loss
…
